nngen/Python3.9.12/mnistv2.onnx (onnx, 31784 bytes, 2 tensors)

fc1.weight f4 [10, 784]
-0.03566268 0.014072755 0.0312829 -0.019500196 0.014664272 -0.0029620146 -0.019408006 -0.030612925
-0.015010783 -0.00800209 0.028077982 -0.03170348 -0.077967264 -1.2293482 -1.1947868 -0.039573386
0.00094616844 0.016051646 0.014465843 0.002723711 0.026104638 0.00016384466 -0.026812334 0.03256741
0.01589231 0.013634376 -0.010635538 -0.026682992 -0.020892898 0.028995272 -0.010959877 0.035637658
-0.02138471 0.0049525304 0.0021840287 -0.20662117 -0.45697457 -0.31398574 -0.41276407 2.3777382
2.4536014 2.3472362 -0.79558766 3.9271321 3.809486 3.2891572 -3.1506307 -0.99780154
-0.51246727 -0.33003142 -0.26628342 -0.009717399 0.018559545 0.019963006 -0.034629464 0.034871895
-0.03462573 0.03515099 -0.026211156 2.537426 2.9221842 -0.53075796 -0.76352286 1.6420463
-0.73655504 -1.4330218 -1.2872069 -3.1996093 -3.3350837 -0.36908963 -1.5849702 -5.040509
-0.5944804 -2.0475612 -1.6594229 -0.8613322 -1.6397693 -1.3704538 -0.85092604 -0.5311845
-2.148451 -0.07059689 -0.03457465 0.0039619463 -0.034023494 3.4021483e-05 0.03426691 0.7192004
-3.6632228 -0.4000849 -1.0776349 -2.4791853 0.5739637 -2.7561536 -1.7099049 -0.5208228
-1.5078783 1.0023772 1.4596219 -1.2001312 0.3945188 0.4636768 -0.8114722 -0.29141638
1.1368972 -2.4989843 0.3497112 0.5686118 -0.8383291 1.7417486 -3.5548716 -0.0097382795
0.016468283 -0.007250761 -0.18567891 -4.609434 0.5311884 -2.0933168 -1.6371678 0.39899018
0.5036158 0.35226244 -0.64927405 0.43495345 -0.5374019 0.29440695 -0.32959378 0.57901084
-0.35511062 0.24186414 0.31885186 0.21721867 0.2020164 -0.6643082 0.3445653 1.2381661
-0.7245863 1.9775754 -5.031982 -0.46324494 -0.010937129 0.004965931 -2.9819453 -5.0318627
-0.74756646 -4.5339084 -0.19073497 -0.07820232 -0.5229434 0.1497739 0.4950734 0.3748357
-0.4077581 0.19095321 0.49341688 -0.33402354 -0.0485313 0.35628867 0.6196395 0.31894925
-0.12808482 -0.23899643 -0.14200597 -1.1537524 -0.04466401 0.30339396 -2.771435 -0.9683561
0.0034454125 -0.30051604 -5.8062925 -0.673931 -0.74156004 -1.8446194 0.21837315 -0.2043715
-0.6148269 -1.2254086 -0.37222305 -0.33343634 -0.04520784 0.8656202 0.5564477 0.02526479
0.061532155 0.16779497 0.5734119 -0.05544658 -0.46508935 0.9227427 1.2320997 -0.6586883
-2.140775 -3.3154492 -3.3568509 -1.126989 -0.038003888 -2.3789434 -1.3320516 -0.7807413
0.26114652 0.5964047 0.5296498 -0.2759524 -1.1901178 0.5405622 0.19908468 0.17562126
-0.19491227 0.19771895 0.101824306 -0.023916854 -0.053664535 0.62990737 0.3901228 0.40560997
0.11975487 -0.3593225 -0.4568126 0.3909102 0.19556129 -0.5309441 -2.8780851 -0.765042
4.937207 -1.6220738 0.3850339 1.0366278 -1.6585162 -0.23466164 0.39423454 -0.0008860938
0.16460088 0.6421374 -0.28332755 -0.16215977 0.5907858 -0.19435345 0.115181565 0.50322676
1.0042956 1.0280668 0.2551223 -0.33956048 0.93659395 0.55749255 0.59272325 0.77264833
-0.6559331 -3.2093503 -5.055221 -1.3252026 -0.15471596 -0.29976562 2.0168257 1.230255
00000000: 0813 12bd 6a91 663c 8022 003d e0be 9fbc
00000010: 6a42 703c 5c1e 42bb 8afd 9ebc f5c7 fabc
00000020: caef 75bc 331b 03bc cc03 e63c 82db 01bd
00000030: 4dad 9fbd 485b 9dbf c6ee 98bf b417 22bd
00000040: 4a08 783a be7e 833c 2502 6d3c 4a80 323b
00000050: 65d9 d53c b7cd 2b39 8aa5 dbbc 6865 053d
00000060: 9730 823c b862 5f3c ae40 2ebc 4a96 dabc
00000070: 9527 abbc 7e87 ed3c 0e91 33bc cbf8 113d
00000080: fd2e afbc d648 a23b ec21 0f3b 8094 53be
00000090: 92f8 e9be bdc2 a0be d055 d3be dd2c 1840
000000a0: ce07 1d40 1e39 1640 a2ab 4bbf 2256 7b40
000000b0: 9ece 7340 8d81 5240 efa3 49c0 ec6f 7fbf
000000c0: 0e31 03bf e1f9 a8be 4d56 88be ba35 1fbc
000000d0: 300a 983c 7589 a33c a0d7 0dbd d5d5 0e3d
000000e0: b6d3 0dbd 7cfa 0f3d c7b8 d6bc 3065 2240
000000f0: 1105 3b40 c1df 07bf 3c76 43bf 932e d23f
00000100: df8e 3cbf 426d b7bf 32c3 a4bf 66c6 4cc0
00000110: 0372 55c0 51f9 bcbe 4ee0 cabf da4b a1c0
00000120: de2f 18bf 3e0b 03c0 f867 d4bf 4480 5cbf
00000130: f6e3 d1bf 086b afbf 4ad6 59bf b5fb 07bf
00000140: 3980 09c0 1a95 90bd 269e 0dbd 37d3 813b
00000150: 385c 0bbd 4ab2 0e38 765b 0c3d 841d 383f
00000160: 3e72 6ac0 eed7 ccbe f1ef 89bf f9aa 1ec0
00000170: 49ef 123f d264 30c0 2ade dabf a554 05bf
00000180: 2802 c1bf e54d 803f e4d4 ba3f e69d 99bf
00000190: 5efe c93e 0c67 ed3e a4bc 4fbf 8734 95be
000001a0: d985 913f 5cef 1fc0 590d b33e 8b90 113f
000001b0: bc9c 56bf 9ef1 de3f 0483 63c0 4e8d 1fbc
000001c0: 7ee8 863c cb97 edbb 9d22 3ebe 7c80 93c0
000001d0: f7fb 073f e7f8 05c0 b78e d1bf 7148 cc3e
000001e0: f7ec 003f be5b b43e d336 26bf 38b2 de3e
000001f0: 2c93 09bf 82bc 963e 84c0 a8be 0e3a 143f
00000200: 0fd1 b5be 3cab 773e 8d40 a33e 926e 5e3e
00000210: 63dd 4e3e 1a10 2abf dd6a b03e 3a7c 9e3f
00000220: 7d7e 39bf 3121 fd3f ff05 a1c0 712e edbe
00000230: a531 33bc 40b9 a23b 31d8 3ec0 0505 a1c0
00000240: 8460 3fbf c715 91c0 0750 43be 8a28 a0bd
00000250: 9edf 05bf 545e 193e 437a fd3e 77ea bf3e
00000260: abc5 d0be 3d89 433e 23a1 fc3e 2205 abbe
00000270: c2c8 46bd 786b b63e b2a0 1e3f 514d a33e
00000280: ab28 03be 7bbb 74be 036a 11be 29ae 93bf
00000290: 9cf1 36bd 7456 9b3e 315f 31c0 2fe6 77bf
000002a0: 6ecc 613b 3ddd 99be 26cd b9c0 be86 2cbf
000002b0: e1d6 3dbf 7d1c ecbf 369d 5f3e c346 51be
000002c0: 4c65 1dbf 30da 9cbf 0594 bebe 2bb8 aabe
000002d0: db2b 39bd 4999 5d3f 5b73 0e3f 1bf8 ce3c
000002e0: 2409 7c3d 72d2 2b3e 1fcb 123f f41b 63bd
000002f0: 3120 eebe de38 6c3f 71b5 9d3f cc9f 28bf
00000300: 7502 09c0 5230 54c0 a5d6 56c0 2d41 90bf
00000310: f7a9 1bbd 9c40 18c0 ab80 aabf a9de 47bf
00000320: ffb4 853e faad 183f 2197 073f a249 8dbe
00000330: c855 98bf 4962 0a3f dbdc 4b3e 0fd6 333e
00000340: 1597 47be d676 4a3e 4389 d03d 47ed c3bc
00000350: 58cf 5bbd 9c41 213f 2dbe c73e 1cac cf3e
00000360: 0b42 f53d 1ef9 b7be 57e3 e9be 6225 c83e
00000370: 3841 483e f4eb 07bf 8c32 38c0 cbd9 43bf
00000380: 9afd 9d40 1da0 cfbf 2a23 c53e 38b0 843f
00000390: 424a d4bf 244b 70be 1cd9 c93e c048 68ba
000003a0: 228d 283e 1e63 243f 4f10 91be 360d 26be
000003b0: bd3d 173f 9704 47be 50e4 eb3d 78d3 003f
000003c0: c28c 803f b197 833f 649f 823e dfda adbe
000003d0: 9fc4 6f3f d5b7 0e3f b6bc 173f 48cc 453f
000003e0: 3beb 27bf ff65 4dc0 5fc4 a1c0 3da0 a9bf
000003f0: dc6d 1ebe e17a 99be ac13 0140 ff78 9d3f

fc1.bias f4 [10]
-1.5914769 1.4837813 0.5354139 -0.848961 0.4678006 3.0125382 -0.6387413 1.712548
-2.906014 -0.51689476
00000000: 84b5 cbbf 8cec bd3f e310 093f 8255 59bf
00000010: 8f83 ef3e 6dcd 4040 8d84 23bf c634 db3f
00000020: 22fc 39c0 3753 04bf
